binder/nutANN.onnx (onnx, 303660 bytes, 15 tensors)

linear1.weight f4 [100, 6]
-0.5341258 -0.9319633 0.37615356 0.1695497 -0.5547565 0.70232815 0.21296415 0.6869465
0.99872774 0.7097472 -0.7949806 -0.9396917 0.30581707 0.8311897 0.37623584 -0.37575677
-0.80968684 -0.77045745 -0.4748845 0.80656344 -0.59073085 -0.7623427 -0.41122827 -0.52425385
0.6869278 0.6197296 -0.8649066 0.045132983 -0.6405171 -0.2874227 -0.06642477 -0.7766489
0.9288222 0.09423832 -0.5920214 0.06959023 0.92706186 -0.87486315 -0.8555759 -0.27572292
-0.7651616 1.0287652 0.75177383 -0.9793009 -0.14690097 -0.08583591 0.6752783 -0.5542145
-0.6934742 0.28717887 -0.35199043 0.6153332 0.8226666 -0.1436149 -0.67264843 0.6447262
-0.32516298 0.8463576 0.10962257 -0.48854914 0.07665442 -0.6054969 -0.35560682 -0.2559346
0.26763594 0.81653005 0.5261031 -0.3065322 0.6089037 -0.8924832 -0.61113375 -0.6319278
0.75298107 0.5944571 -0.9041056 0.092257045 0.7247828 0.54481256 -0.4956236 0.056790877
0.90494996 -0.32089484 -0.7258519 -0.93042463 -0.921462 0.82541126 -0.7148512 0.689355
-0.56337625 -0.40376008 0.8043022 -0.7110803 0.050447576 -0.510202 0.34271726 0.1496942
-0.100661166 -0.78845143 0.48698634 0.12480336 -0.6022715 0.53987956 -0.94636744 0.92791694
0.17650749 -0.27019408 -0.8517109 -0.73286813 -0.9005592 0.23674093 0.8265626 -0.095522866
-0.71032614 0.015230786 -0.15611643 -0.5977972 -0.23036051 0.281368 0.7307108 0.33449763
0.010080526 -0.63896686 -0.048777528 -0.16099101 -0.3093267 -0.687342 0.3329606 0.16946484
-0.13085788 0.4096008 -0.5065042 -0.5330027 0.386091 0.11504538 0.57601297 0.89598644
0.3538933 -0.7472294 -0.9498669 0.3584929 0.4368537 -0.42208377 -0.7597673 0.6136845
-0.113636926 0.360715 0.7519275 -0.8050215 -0.6802129 -0.9653834 0.6532161 0.5690088
-0.77316856 -0.1088393 0.30229926 0.85932463 -0.73516387 -0.7822342 0.3293284 0.90400547
-0.26419345 -0.29465562 0.4830199 -0.36411723 0.90471536 -0.940607 0.20636232 -0.9559357
0.8507751 0.8794191 0.34853 0.44866428 0.8021866 -0.31919476 0.2153728 -0.18823233
-0.2377266 0.24094155 0.35046235 -0.7142744 -0.8577667 -0.57576984 -0.16676459 0.16790104
0.5349408 -0.87208617 -0.7495203 0.34409758 -0.41887596 -0.9582155 0.1358641 0.15883654
-0.21327019 -0.4347104 -0.8816913 0.86199534 0.2218105 0.29581863 -0.6315144 0.9026703
-0.16786984 -0.72690976 -0.4916629 0.6375092 0.8075995 -0.07315538 -0.6671322 -0.75944656
0.66021204 -0.708185 -0.12236372 0.45044377 0.11170404 -0.601832 -0.2849447 0.11674777
-0.3582775 0.30255035 0.94359064 0.64743245 -0.9459788 0.73556936 -0.69238746 -0.45127937
-0.7166347 -0.2321811 -0.5807922 0.15918948 -0.45890632 -0.15927099 0.18407872 0.29161263
-0.10028184 -0.6091655 -0.5662893 0.6005109 -0.78187656 0.28318956 -0.6859218 -0.9384195
0.116427794 0.7074964 0.09159409 0.69170713 -0.5703048 0.06231644 -0.8089496 0.20929785
-0.5827983 0.24805714 -0.40001175 0.7524681 -0.4274149 -0.817622 -0.79621744 0.2009703
00000000: 78bc 08bf 2695 6ebf 3397 c03e 709e 2d3e
00000010: 8604 0ebf c7cb 333f 4613 5a3e badb 2f3f
00000020: 9fac 7f3f feb1 353f d983 4bbf a38f 70bf
00000030: 0e94 9c3e d9c8 543f fca1 c03e 3163 c0be
00000040: a347 4fbf b33c 45bf 1024 f3be f17a 4e3f
00000050: 233a 17bf e428 43bf 838c d2be 8035 06bf
00000060: 80da 2f3f 99a6 1e3f 856a 5dbf 5ddd 383d
00000070: eef8 23bf 1129 93be b609 88bd 76d2 46bf
00000080: 4bc7 6d3f 0500 c13d b78e 17bf 5385 8e3d
00000090: ed53 6d3f 08f7 5fbf 0607 5bbf 8e2b 8dbe
000000a0: a1e1 43bf 94ae 833f 4074 403f 77b3 7abf
000000b0: 356d 16be bdca afbd 0adf 2c3f 00e1 0dbf
000000c0: 8687 31bf 1c09 933e 1738 b4be 7a86 1d3f
000000d0: 479a 523f c90f 13be b032 2cbf c70c 253f
000000e0: c37b a6be e4aa 583f cc81 e03d 1d23 fabe
000000f0: fefc 9c3d d801 1bbf 1912 b6be dc09 83be
00000100: 9407 893e 1d08 513f b1ae 063f caf1 9cbe
00000110: 1de1 1b3f c779 64bf 4373 1cbf 05c6 21bf
00000120: 5ec3 403f 572e 183f 7773 67bf 43f1 bc3d
00000130: 5e8b 393f d678 0b3f 60c2 fdbe 8d9d 683d
00000140: cdaa 673f 544c a4be 6ed1 39bf 4f30 6ebf
00000150: efe4 6bbf 274e 533f 7d00 37bf 9279 303f
00000160: 6d39 10bf a4b9 cebe c0e6 4d3f 5c09 36bf
00000170: 1ea2 4e3d 999c 02bf a378 af3e 7049 193e
00000180: 7127 cebd f4d7 49bf 4656 f93e e798 ff3d
00000190: 772e 1abf 8c35 0a3f 2345 72bf f78b 6d3f
000001a0: 61be 343e e156 8abe ba09 5abf 3f9d 3bbf
000001b0: 0c8b 66bf 376c 723e 9b99 533f 7ea1 c3bd
000001c0: efd7 35bf 8c8a 793c fcdc 1fbe 3d09 19bf
000001d0: a0e3 6bbe 770f 903e dd0f 3b3f 4643 ab3e
000001e0: ca28 253c 5593 23bf f2ca 47bd d4da 24be
000001f0: 1260 9ebe a5f5 2fbf d079 aa3e 3188 2d3e
00000200: 9cff 05be 32b7 d13e 42aa 01bf dd72 08bf
00000210: b8ad c53e ea9c eb3d 9675 133f 5e5f 653f
00000220: 8131 b53e 6d4a 3fbf 7a2a 73bf 628c b73e
00000230: 4aab df3e 5d1b d8be 1c80 42bf 6d1a 1d3f
00000240: 7aba e8bd a3af b83e 527e 403f e415 4ebf
00000250: 6f22 2ebf 5e23 77bf 2c39 273f 90aa 113f
00000260: 60ee 45bf 24e7 debd f8c6 9a3e b3fc 5b3f
00000270: b333 3cbf 8040 48bf bb9d a83e e76c 673f
00000280: 5d44 87be 1add 96be 624e f73e 936d babe
00000290: 6d9b 673f 9fcb 70bf a550 533e 34b8 74bf
000002a0: 66cc 593f 9c21 613f 8672 b23e 53b7 e53e
000002b0: 1a5c 4d3f 7f6d a3be b08a 5c3e fabf 40be
000002c0: 9a6e 73be 62b9 763e cd6f b33e b0da 36bf
000002d0: 9996 5bbf a765 13bf 56c4 2abe 40ee 2b3e
000002e0: e1f1 083f 0a41 5fbf 90e0 3fbf 8f2d b03e
000002f0: e976 d6be 9c4d 75bf f51f 0b3e 0ca6 223e
00000300: 8063 5abe 5d92 debe 85b6 61bf baab 5c3f
00000310: 4b22 633e 8a75 973e edaa 21bf 6715 673f
00000320: 12e6 2bbe c216 3abf 3dbb fbbe ce33 233f
00000330: d7be 4e3f 7dd2 95bd 2dc9 2abf 176b 42bf
00000340: a803 293f 9d4b 35bf d499 fabd 91a0 e63e
00000350: 16c5 e43d a911 1abf 46e4 91be 7419 ef3d
00000360: 2670 b7be e1e7 9a3e 288f 713f 22be 253f
00000370: ab2b 72bf 464e 3c3f 4e40 31bf 170e e7be
00000380: 5f75 37bf e2c0 6dbe ccae 14bf 9102 233e
00000390: c5f5 eabe ef17 23be 227f 3c3e 404e 953e
000003a0: 9160 cdbd 45f2 1bbf 56f8 10bf 15bb 193f
000003b0: 1029 48bf 39fe 903e 9298 2fbf 433c 70bf
000003c0: b271 ee3d 7c1e 353f af95 bb3d b813 313f
000003d0: 7fff 11bf 863f 7f3d 5217 4fbf 2d52 563e
000003e0: 4532 15bf b102 7e3e 57ce ccbe c0a1 403f
000003f0: 20d6 dabe ad4f 51bf e8d4 4bbf 29cb 4d3e

linear1.bias f4 [100]
-0.132694 -0.30005425 0.3193898 0.32361078 -0.24031115 0.4095181 0.40167394 0.15799348
0.13904873 -0.1152528 -0.14787525 0.15284285 -0.007850649 -0.19359191 0.14107615 -0.10363023
-0.08364993 0.39682832 0.3688816 0.2494424 0.24146214 0.413012 -0.17763072 -0.102829784
0.1624286 0.06470018 0.5016454 -0.14618668 -0.30035236 0.2655588 -0.15962172 -0.11472478
0.26244083 -0.15345919 -0.12858136 0.36190578 0.17901772 -0.040037144 -0.04400296 0.13870886
-0.43526852 -0.11725853 -0.3851118 -0.0050157937 -0.27289456 0.02974321 -0.10419407 -0.15357764
0.15662466 -0.5007035 -0.0031325382 0.2580581 -0.3693455 0.09544914 -0.4801091 0.17149036
-0.34677628 -0.18839309 -0.15682845 -0.3269205 -0.15260065 -0.21300633 0.37429973 -0.3677357
-0.18933399 0.3203024 0.36691427 -0.09118257 0.006054281 -0.22583061 0.16304545 0.18196788
-0.09183063 -0.3502451 -0.101071484 -0.13211331 0.0906471 0.3645418 0.23521276 0.39558053
0.026531668 0.3407975 -0.39533556 -0.33018312 0.14651065 0.28432584 -0.43375087 0.174543
-0.048123233 -0.03290106 -0.11816319 -0.15397458 -0.28657684 -0.29257956 -0.1781443 0.08932831
0.5245477 -0.2459677 -0.21497832 0.025246743
00000000: f0e0 07be b6a0 99be 0f87 a33e 50b0 a53e
00000010: 2014 76be 5bac d13e 35a8 cd3e 0bc9 213e
00000020: ca62 0e3e a909 ecbd 9c6c 17be d682 1c3e
00000030: 02a0 00bc f53c 46be 4476 103e 163c d4bd
00000040: a850 abbd 152d cb3e 0dde bc3e d46d 7f3e
00000050: da41 773e 4f76 d33e d4e4 35be 6c98 d2bd
00000060: af53 263e 8781 843d d56b 003f f6b1 15be
00000070: c9c7 99be 53f7 873e e073 23be d3f4 eabd
00000080: a55e 863e 6824 1dbe d5aa 03be b74b b93e
00000090: 6c50 373e fdfd 23bd 733c 34bd b209 0e3e
000000a0: 84db debe 3d25 f0bd 602d c5be 875b a4bb
000000b0: d6b8 8bbe 08a8 f33c b363 d5bd 7543 1dbe
000000c0: 3762 203e 1b2e 00bf 454b 4dbb 3120 843e
000000d0: da1a bdbe d77a c33d dcd0 f5be 2b9b 2f3e
000000e0: a98c b1be 1eea 40be a397 20be 2062 a7be
000000f0: 5843 1cbe 551e 5abe 37a4 bf3e db47 bcbe
00000100: c5e0 41be adfe a33e 30dc bb3e edbd babd
00000110: fd62 c63b 2440 67be 63f5 263e ca55 3a3e
00000120: b311 bcbd 5353 b3be 91fe cebd b648 07be
00000130: 30a5 b93d 39a5 ba3e 9ddb 703e 8889 ca3e
00000140: f158 d93c 037d ae3e 6c69 cabe c30d a9be
00000150: e306 163e 2893 913e 9814 debe 66bb 323e
00000160: de1c 45bd 43c3 06bd 8bff f1bd 83ab 1dbe
00000170: 33ba 92be fdcc 95be 766b 36be c3f1 b63d
00000180: c248 063f f5de 7bbe 4723 5cbe 42d2 ce3c

linear2.weight f4 [100, 100]
-0.21263142 0.33608264 0.42273793 -0.18598738 -0.050555103 0.21732828 -0.000852436 0.12453631
-0.09208046 -0.27041206 -0.0939915 0.016415209 0.14335321 0.14986901 -0.17788176 0.023321657
0.18809593 0.14292899 0.3609761 -0.16361526 0.17577605 -0.12561849 -0.0050795693 0.21624829
-0.08187674 0.1693454 -0.1254038 0.12591848 -0.0073413597 0.182796 0.099035904 0.021251682
-0.06282007 -0.18457568 -0.15930423 0.098548256 -0.119342655 0.23270413 -0.06886116 -0.23290785
0.087086834 0.22139248 0.11911319 -0.25787333 0.12348738 -0.089412495 -0.086331554 -0.18527319
0.13121434 -0.15840337 -0.16857642 0.21722133 -0.13819833 0.25486988 0.13969058 -0.13383023
0.024410458 -0.17403959 -0.118301034 -0.12118424 -0.16794121 0.08994869 0.09070634 -0.090328224
-0.1124363 -0.0377865 -0.0826237 -0.02173739 0.21861622 -0.17623223 -0.06135532 -0.2666747
-0.13176902 0.043320417 0.013402076 -0.12483368 -0.06303543 -0.23774365 0.022668911 0.14415708
0.02759704 -0.0694939 -0.01441352 0.020714972 -0.44310334 -0.07166465 0.23039481 -0.19622186
0.1554628 -0.19251609 0.13409688 0.13369846 0.21693176 -0.11600215 0.05988238 0.18489054
0.102540106 -0.026629945 -0.10312014 -0.15541871 -0.14877728 -0.060480714 0.08165572 -0.22769976
0.07471551 0.14316991 0.013791084 -0.18515801 -0.05910246 -0.02534859 -0.070079476 -0.1255967
-0.062716454 0.09572854 -0.10250389 0.16456285 -0.026786914 -0.06598262 0.20512421 0.022646716
0.059490416 -0.08260218 0.0088188695 0.20866989 -0.046195284 -0.028889807 -0.10523197 0.1973135
-0.0011067698 -0.17496988 -0.222161 0.17987135 0.001972898 0.21219127 0.12906186 0.07177347
0.018194934 0.07666745 0.07679163 -0.20761402 -0.22049792 -0.028986804 -0.09177662 0.23998238
-0.0035150188 -0.06876273 0.106672846 -0.020273412 0.008501897 0.2613199 0.0740089 -0.075959094
0.23193526 0.2106342 -0.003510708 -0.006516011 -0.1507206 0.24467868 -0.10689369 -0.1356694
-0.09477869 -0.0735366 0.10978961 -0.066394165 0.29866147 0.114186004 0.21052717 0.041000985
0.06875219 -0.219619 -0.10564569 0.013352321 -0.14253098 0.14849229 0.008151425 -0.0010061157
-0.05340944 0.13316932 -0.01106202 -0.07202241 -0.23485968 0.22313912 0.35225737 0.1285262
-0.5688427 0.0049702907 0.13605815 0.13297525 0.09291204 0.018223722 0.21909858 0.12316865
0.15150334 0.109861575 0.0011491212 -0.016175445 0.2844933 -0.22635958 -0.23859031 0.012451278
0.16112089 0.25143325 -0.09291114 -0.046406366 -0.04840106 -0.09682522 -0.043681666 0.20649362
0.06871139 0.32796466 0.08018035 0.21899411 0.0035933214 0.23006673 -0.19210546 -0.057707082
0.23211049 -0.15409313 -0.25360945 -0.16758034 -0.1885745 0.04162288 0.0111775985 0.142581
-0.12676616 0.20920406 0.05228998 0.17248696 -0.08769048 0.012319486 0.22941296 0.1043191
-0.009330173 -0.2137556 0.1075714 0.17127754 -0.073509544 -0.12200184 0.21321422 0.055427063
-0.07933134 0.11446182 -0.18412857 -0.004357213 0.16084737 0.24745858 0.1851496 0.06625374
-0.030809173 0.15276888 0.06919656 0.19033134 -0.19257027 -0.102206975 0.13782273 0.21595629
00000000: 0dbc 59be 0613 ac3e 1b71 d83e 7a73 3ebe
00000010: de12 4fbd 4e8b 5e3e 0376 5fba e50c ff3d
00000020: ae94 bcbd 7373 8abe 9e7e c0bd 3079 863c
00000030: 2fcb 123e 4377 193e a326 36be 0f0d bf3c
00000040: 389c 403e fa5b 123e dcd1 b83e c28a 27be
00000050: a3fe 333e 22a2 00be 8472 a6bb 3170 5d3e
00000060: feae a7bd e168 2d3e db69 00be c6f0 003e
00000070: ca8f f0bb e02e 3b3e 56d3 ca3d 0218 ae3c
00000080: cfa7 80bd 6801 3dbe a620 23be abd3 c93d
00000090: ec69 f4bd fe49 6e3e 1407 8dbd 657f 6ebe
000000a0: 955a b23d b6b4 623e 9ef1 f33d f907 84be
000000b0: f4e6 fc3d e61d b7bd 99ce b0bd 41b8 3dbe
000000c0: 0d5d 063e 7e34 22be 4c9f 2cbe 456f 5e3e
000000d0: dd83 0dbe 4e7e 823e 0c0b 0f3e cb0a 09be
000000e0: 71f8 c73c 6f37 32be d047 f2bd 712f f8bd
000000f0: c8f8 2bbe 0537 b83d 3fc4 b93d 01fe b8bd
00000100: 0145 e6bd 04c6 1abd 9d36 a9bd 9c12 b2bc
00000110: eedc 5f3e 3976 34be b74f 7bbd 9689 88be
00000120: 75ee 06be c070 313d 6294 5b3c cda8 ffbd
00000130: b818 81bd 1273 73be 27b4 b93c ea9d 133e
00000140: 3013 e23c d152 8ebd af26 6cbc 72b2 a93c
00000150: 71de e2be ebc4 92bd 9eec 6b3e 62ee 48be
00000160: a431 1f3e f022 45be b150 093e 40e8 083e
00000170: 5c23 5e3e 8992 edbd 3a47 753d f253 3d3e
00000180: 8c00 d23d 0b27 dabc a730 d3bd 1526 1fbe
00000190: 1259 18be a0ba 77bd 1d3b a73d 202a 69be
000001a0: 7204 993d 229b 123e 00f4 613c 109a 3dbe
000001b0: 6c15 72bd d9a7 cfbc d485 8fbd 6c9c 00be
000001c0: 7c71 80bd 530d c43d 8fed d1bd 2a83 283e
000001d0: 3b70 dbbc e521 87bd 150c 523e 9b85 b93c
000001e0: 39ac 733d 552b a9bd 057d 103c 8fad 553e
000001f0: 4437 3dbd 51aa ecbc dc83 d7bd 8d0c 4a3e
00000200: 0811 91ba 4e2b 33be 2c7e 63be 3230 383e
00000210: bc4b 013b ab48 593e cb28 043e f8fd 923d
00000220: 8b0d 953c d303 9d3d ee44 9d3d c598 54be
00000230: 35ca 61be bc75 edbc 61f5 bbbd f1bd 753e
00000240: 3b5c 66bb 79d3 8cbd 4b77 da3d 6d14 a6bc
00000250: 8a4b 0b3c b9cb 853e fa91 973d 7190 9bbd
00000260: 7080 6d3e 7eb0 573e e813 66bb 4384 d5bb
00000270: 8056 1abe 0c8d 7a3e 14eb dabd ebec 0abe
00000280: 541b c2bd 5b9a 96bd 60d9 e03d aaf9 87bd
00000290: 28ea 983e 5ada e93d 6f94 573e a6f0 273d
000002a0: f3cd 8c3d cee3 60be c45c d8bd b2c3 5a3c
000002b0: a4f3 11be 5d0e 183e 8e8d 053c a4df 83ba
000002c0: dbc3 5abd 8a5d 083e 7a3d 35bc 7c80 93bd
000002d0: 0e7f 70be 957e 643e 145b b43e 5f9c 033e
000002e0: ad9f 11bf d2dd a23b d452 0b3e aa2a 083e
000002f0: ab48 be3d ea49 953c 615b 603e d83f fc3d
00000300: b123 1b3e 1bff e03d 1c9e 963a 5e82 84bc
00000310: 1ba9 913e ceca 67be 0551 74be 7200 4c3c
00000320: e0fc 243e dcbb 803e 3248 bebd 9a14 3ebd
00000330: 3140 46bd 4d4c c6bd 8ceb 32bd 1073 533e
00000340: 8fb8 8c3d fcea a73e 9835 a43d fe3f 603e
00000350: ee7d 6b3b 9d96 6b3e 4bb7 44be 435e 6cbd
00000360: 5fae 6d3e 97ca 1dbe 19d9 81be 2e9a 2bbe
00000370: ac19 41be c17c 2a3d 3f22 373c c100 123e
00000380: fdce 01be 9739 563e 052e 563d 6ca0 303e
00000390: 1197 b3bd abd7 493c 3beb 6a3e 41a5 d53d
000003a0: 95dd 18bc bfe2 5abe 654e dc3d 6163 2f3e
000003b0: 2c8c 96bd 1adc f9bd d454 5a3e 7d07 633d
000003c0: 7878 a2bd f56a ea3d 338c 3cbe f4c6 8ebb
000003d0: 2cb5 243e c865 7d3e db97 3d3e 0ab0 873d
000003e0: 8563 fcbc 726f 1c3e edb6 8d3d 38e6 423e
000003f0: 2431 45be e451 d1bd 6721 0d3e a523 5d3e

linear2.bias f4 [100]
0.08444746 -0.097921774 -0.08647169 -0.03211512 -0.057061605 0.018901462 -0.0009295352 -0.07309548
0.06916032 0.016953157 0.031254448 -0.04441628 -0.042259235 -0.006016411 -0.031481687 -0.04525875
-0.058300786 0.11885524 -0.010098503 -0.051138237 0.015639946 0.02559705 0.018403627 -0.124129325
-0.05696519 0.19938068 0.0490301 -0.028442457 -0.031422522 -0.045160983 -0.06426641 0.033580437
0.0025708864 -0.045334995 -0.061317436 -0.10638028 -0.04128582 0.066079006 0.039629817 -0.047607917
-0.03717631 -0.02484534 -0.008366663 -0.03016716 0.0023523956 -0.010751617 0.008292099 -0.09078065
0.058353774 -0.011194902 -0.07029278 0.16418323 0.020155026 -0.053255808 0.06816021 -0.0836523
-0.003923094 0.073458575 -0.0076913065 -0.014599946 0.019574163 0.060286276 -0.013542924 -0.061310083
0.05669199 0.011331929 0.0773039 -0.019631604 -0.038969107 0.070703395 0.018768629 -0.008392254
0.06286925 -0.101768 0.036675226 0.041929156 0.13495414 0.047971368 0.087778546 -0.018914893
-0.0950409 0.05701964 0.05325196 0.02760092 0.07942104 0.092914015 -0.012082426 -0.045816034
0.011063227 0.047042504 0.012817627 0.052583363 -0.08181129 0.0016585261 0.12526074 -0.023217218
0.037753798 -0.07117783 -0.09772777 0.09983828
00000000: caf2 ac3d 368b c8bd 1218 b1bd 258b 03bd
00000010: 6eb9 69bd 3dd7 9a3c 0dac 73ba 15b3 95bd
00000020: eda3 8d3d 59e1 8a3c aa04 003d d8ed 35bd
00000030: 0518 2dbd 5025 c5bb f1f2 00bd 3d61 39bd
00000040: cecc 6ebd 606a f33d 3174 25bc 5476 51bd
00000050: 581f 803c e8b0 d13c 34c3 963c 8437 febd
00000060: 5554 69bd 732a 4c3e c9d3 483d 2800 e9bc
00000070: e7b4 00bd b9fa 38bd 1c9e 83bd a48b 093d
00000080: 517c 283b 30b1 39bd fe27 7bbd e7dd d9bd
00000090: 521b 29bd 6e54 873d e052 223d 8500 43bd
000000a0: 3046 18bd 7488 cbbc 5414 09bc 1f21 f7bc
000000b0: a62a 1a3b 8d27 30bc 96db 073c 35eb b9bd
000000c0: 5e04 6f3d d26a 37bc a9f5 8fbd a61f 283e
000000d0: 271c a53c c322 5abd 9597 8b3d e651 abbd
000000e0: 4c8d 80bb 7371 963d 5b07 fcbb 9d34 6fbc
000000f0: ff59 a03c beee 763d 24e3 5dbc 4820 7bbd
00000100: dc35 683d 8ea9 393c 8251 9e3d 75d2 a0bc
00000110: 129e 1fbd f1cc 903d abc0 993c aa7f 09bc
00000120: 98c1 803d be6b d0bd c338 163d e8bd 2b3d
00000130: 6b31 0a3e a07d 443d 3dc5 b33d 68f3 9abc
00000140: cea4 c2bd 6d8d 693d ba1e 5a3d 531b e23c
00000150: 80a7 a23d b449 be3d 5ef5 45bc 98a9 3bbd
00000160: 8a42 353c a4af 403d 0601 523c a761 573d
00000170: ad8c a7bd e762 d93a 5a44 003e 0932 bebc
00000180: baa3 1a3d afc5 91bd 7f25 c8bd 0378 cc3d

linear3.weight f4 [100, 100]
0.11316591 -0.31623647 0.24335517 -0.17369376 -0.10621828 0.021583142 0.1050614 -0.045480635
0.0835154 0.039891753 -0.094206415 0.10202907 0.089977026 0.12655346 -0.1477208 -0.07030277
-0.03658064 0.11768208 -0.03139101 0.05369794 0.23251544 -0.18766356 0.041615367 -0.22671388
-0.048651908 -0.007516918 0.09298806 -0.14145143 -0.25270566 -0.22023053 0.18333375 -0.12759553
0.17121571 -0.028847234 -0.16144663 -0.13603544 -0.34414884 0.102932565 0.18104276 -0.22012414
0.003282179 0.098659046 0.22440727 0.2047989 0.06756472 -0.085286304 -0.2809435 -0.07689565
0.075102985 -0.0014733732 0.119584896 -0.10513115 -0.3215294 -0.14350231 -0.22309034 -0.0040183035
0.024482517 -0.14058019 -0.03078107 0.009555871 -0.24231069 -0.19599417 0.18316366 -0.0047023646
0.01598338 0.23504606 -0.051716805 0.2274067 -0.12328507 -0.09969131 -0.1656067 0.018491983
-0.10021167 -0.2281042 -0.15905467 -0.06737373 0.16330498 0.053133354 0.12766618 -0.2434535
0.16538455 -0.12903114 -0.10950048 -0.23319666 0.1475292 0.07887001 0.16355398 0.0035502752
-0.0016282719 0.09285741 -0.22701336 -0.2310578 -0.1711634 0.03268441 -0.07499799 0.19598448
0.0051396945 0.06238433 0.12760946 0.004641962 -0.16262838 -0.25886407 0.036359385 -0.081463166
-0.03153346 -0.14057301 -0.23750895 0.04645333 0.22311747 -0.2154542 0.02022198 -0.054965537
0.1909853 0.15103951 0.062290333 0.20706902 -0.24171978 0.09018386 0.18148202 0.061581247
-0.20519201 0.20591982 -0.088951364 0.023306 0.4301922 -0.30470428 -0.120693736 -0.111259595
0.14797749 -0.02851561 -0.13117172 -0.0042493576 -0.13117394 0.105082735 0.16880843 0.21400696
0.1118495 0.26624367 -0.008834328 0.19853978 0.10855833 -0.17855197 -0.00069038296 -0.07182876
-0.017379303 -0.14103748 0.29221588 0.15820412 0.08031154 -0.16214783 -0.024364375 -0.015128824
-0.11399543 0.07826559 0.19342661 -0.050684817 -0.055143666 -0.297763 -0.11140743 -0.11346782
0.13583164 0.101546705 -0.066583596 0.16009562 -0.07337911 0.121193886 0.18819052 -0.2006129
0.31318727 0.17803262 -0.028514365 0.113164224 0.1090026 -0.011984939 -0.24647017 0.17187297
0.2249974 -0.08865757 -0.008060605 0.0066696284 -0.011072109 0.11088449 0.31188455 0.5939203
-0.0316152 -0.010119602 -0.1932041 -0.28474763 0.07292203 -0.24743438 0.23149346 0.22660623
0.12552369 0.16679457 -0.13594344 0.06553695 0.0017974752 -0.18581778 -0.14845885 0.2413437
-0.19144373 -0.22443119 0.13286921 -0.1254034 0.13396133 -0.052035652 0.16224043 -0.14081115
-0.13829719 0.10707347 -0.19009826 -0.15002103 0.20263362 -0.15589578 0.19538753 0.17926441
-0.07644802 -0.011309599 -0.12831333 -0.07277036 0.003895482 0.0967409 -0.16567853 -0.039750364
0.20931317 -0.10245385 -0.075270325 -0.17721982 -0.07041722 -0.106814094 0.04099381 0.17973132
-0.1728748 -0.048314095 -0.18628791 0.12545481 0.0016413077 -0.029820552 -0.20671569 0.15523838
-0.22089492 0.073370755 -0.25741506 0.14927651 0.08086757 -0.23198092 0.19648996 -0.19262199
0.08856942 -0.08849961 -0.07378623 0.13524866 0.1091604 -0.08530924 -0.018565845 -0.24120106
00000000: 87c3 e73d bfe9 a1be 1932 793e c7dc 31be
00000010: f888 d9bd 21cf b03c 6e2a d73d e749 3abd
00000020: 1f0a ab3d 8965 233d 4bef c0bd 9ef4 d03d
00000030: e045 b83d 3b97 013e 1f44 17be e6fa 8fbd
00000040: 95d5 15bd 4d03 f13d dc93 00bd 5ff2 5b3d
00000050: 8718 6e3e e02a 40be e074 2a3d af27 68be
00000060: 3947 47bd 7a50 f6bb 8670 be3d a5d8 10be
00000070: a362 81be 1d84 61be d8bb 3b3e 67a8 02be
00000080: 2c53 2f3e 0951 ecbc 4452 25be e04c 0bbe
00000090: 4734 b0be 4fce d23d 4663 393e 3968 61be
000000a0: d319 573b c10d ca3d 05cb 653e ceb6 513e
000000b0: 5f5f 8a3d 96aa aebd d4d7 8fbe 777b 9dbd
000000c0: 98cf 993d 331e c1ba ede8 f43d 004f d7bd
000000d0: 809f a4be 45f2 12be cb71 64be f9ab 83bb
000000e0: 8f8f c83c 41f4 0fbe 9528 fcbc 3a90 1c3c
000000f0: 4b20 78be b2b2 48be 418f 3b3e 4b16 9abb
00000100: 94ef 823c eaaf 703e 00d5 53bd 4ddd 683e
00000110: e27c fcbd f52a ccbd ce94 29be 807c 973c
00000120: c73b cdbd 2694 69be 3adf 22be 3dfb 89bd
00000130: 6c39 273e 5ca2 593d ecba 023e e04b 79be
00000140: 915a 293e bd20 04be ca41 e0bd 1bcb 6ebe
00000150: e511 173e 9a86 a13d b27a 273e bcab 683b
00000160: bd6b d5ba 072c be3d 3176 68be 6a9a 6cbe
00000170: 7545 2fbe 17e0 053d 8c98 99bd 28b0 483e
00000180: e26a a83b b686 7f3d 0eac 023e 991b 983b
00000190: 0e88 26be d589 84be 94ed 143d 29d6 a6bd
000001a0: 3b29 01bd 5ff2 0fbe 8c35 73be d945 3e3d
000001b0: e878 643e 07a0 5cbe 91a8 a53c 8b23 61bd
000001c0: a791 433e 1aaa 1a3e 2624 7f3d e709 543e
000001d0: 6485 77be 51b2 b83d 6cd6 393e 9e3c 7c3d
000001e0: db1d 52be a5dc 523e 222c b6bd 39ec be3c
000001f0: 2742 dc3e 3302 9cbe 472e f7bd 12dc e3bd
00000200: 6987 173e 9299 e9bc e151 06be 323e 8bbb
00000210: 7652 06be 9e35 d73d 1edc 2c3e a424 5b3e
00000220: 5a11 e53d 1751 883e dbbd 10bc 034e 4b3e
00000230: d453 de3d 54d6 36be d1fa 34ba f51a 93bd
00000240: 0a5f 8ebc 216c 10be 529d 953e 4300 223e
00000250: 607a a43d 150a 26be cc97 c7bc e3de 77bc
00000260: 7076 e9bd b649 a03d a011 463e e29a 4fbd
00000270: 53de 61bd 6474 98be 9429 e4bd d161 e8bd
00000280: 7317 0b3e b8f7 cf3d fb5c 88bd 1bf0 233e
00000290: c947 96bd 8034 f83d 04b5 403e 786d 4dbe
000002a0: 155a a03e 2f4e 363e f596 e9bc a5c2 e73d
000002b0: c13c df3d 7a5c 44bc ad62 7cbe 78ff 2f3e
000002c0: b865 663e 1a92 b5bd a110 04bc e68c da3b
000002d0: cb67 35bc 6817 e33d 55af 9f3e 290b 183f
000002e0: f17e 01bd b0cc 25bc 4cd7 45be 71ca 91be
000002f0: 2558 953d 705f 7dbe 9f0c 6d3e 770b 683e
00000300: 4889 003e 32cc 2a3e c234 0bbe 3d38 863d
00000310: 4299 eb3a 0447 3ebe 9905 18be ce22 773e
00000320: d309 44be 4ad1 65be de0e 083e c069 00be
00000330: 292d 093e 5623 55bd 5b22 263e cc30 10be
00000340: c79d 0dbe 5649 db3d 1ea9 42be 1d9f 19be
00000350: 307f 4f3e 25a3 1fbe ab13 483e 1791 373e
00000360: c890 9cbd e54b 39bc 9264 03be a008 95bd
00000370: 584b 7f3b 1820 c63d a2a7 29be 47d1 22bd
00000380: 3156 563e 53d3 d1bd 5427 9abd 1d79 35be
00000390: e736 90bd 59c1 dabd 20e9 273d 7d0b 383e
000003a0: 1706 31be 00e5 45bd 42c2 3ebe 3a77 003e
000003b0: 2621 d73a 3b4a f4bc 47ad 53be cff6 1e3e
000003c0: 4732 62be 6843 963d e8cb 83be f1db 183e
000003d0: e69d a53d 688c 6dbe aa34 493e b33e 45be
000003e0: e263 b53d 493f b5bd 3c1d 97bd a07e 0a3e
000003f0: 7d8f df3d 9cb6 aebd 6617 98bc 69fd 76be

linear3.bias f4 [100]
0.12592174 -0.036794912 -0.16676036 -0.054103203 0.053634375 -0.016090052 -0.02299574 -0.08261901
-0.06167268 -0.12395204 -0.0070590735 0.05674063 0.0010413942 -0.08820969 -0.041560847 0.012911178
-0.012510024 0.022763716 -0.007138165 -0.0047123902 -0.017896676 -0.091638155 -0.04475755 0.10063422
0.07900608 0.08738697 0.04887043 -0.09119185 -0.06926194 -0.049812276 0.04604049 0.08675837
0.026859263 -0.09332665 -0.04567743 -0.0628792 0.0297438 0.11447636 0.015193147 -0.01423353
0.036308233 -0.11832406 -0.028073693 -0.031198062 -0.06690846 -0.083165914 -0.106681965 -0.11566657
-0.073670045 0.06490782 0.05451969 -0.08310525 -0.092373006 -0.04153878 -0.096728764 0.016102612
0.05907615 0.052033346 0.04837154 -0.05462897 0.028762577 0.10225894 -0.076048166 0.02239337
0.10116989 -0.08930687 -0.075836696 0.045376424 -0.12018587 -0.075697005 0.042601805 0.09097275
0.05677793 -0.08451558 0.085726395 -0.10053414 0.04348343 -5.6087694e-05 -0.010786895 0.09417284
-0.044642072 0.0861374 -0.002381088 0.029097281 -0.08742422 0.055299405 0.049313672 -0.09113536
-0.048643988 0.02676718 0.112331204 -0.07577187 0.038792066 0.055385556 -0.035549887 -0.009598123
-0.038027707 0.0845568 0.09039827 -0.035173837
00000000: a1f1 003e 43b6 16bd 3ac3 2abe 529b 5dbd
00000010: b8af 5b3d 49cf 83bc 9061 bcbc 2834 a9bd
00000020: 7e9c 7cbd 91da fdbd cd4f e7bb dd68 683d
00000030: 647f 883a 48a7 b4bd b53b 2abd 6889 533c
00000040: d8f6 4cbc f97a ba3c 45e7 e9bb 656a 9abb
00000050: 0d9c 92bc c9ac bbbd b153 37bd 5019 ce3d
00000060: f1cd a13d f1f7 b23d 5c2c 483d cbc2 babd
00000070: 34d9 8dbd f507 4cbd f494 3c3d 5fae b13d
00000080: f507 dc3c 0b22 bfbd 4218 3bbd cfc6 80bd
00000090: 45a9 f33c 9572 ea3d adec 783c c033 69bc
000000a0: f1b7 143d e353 f2bd cdfa e5bc 1493 ffbc
000000b0: 4d07 89bd e452 aabd 137c dabd 98e2 ecbd
000000c0: 52e0 96bd 64ee 843d 0a50 5f3d 1633 aabd
000000d0: 0f2e bdbd 9124 2abd bb19 c6bd a0e9 833c
000000e0: d5f9 713d eb20 553d 3c21 463d a0c2 5fbd
000000f0: 7f9f eb3c 236d d13d 24bf 9bbd 4d72 b73c
00000100: 2932 cf3d 85e6 b6bd 4550 9bbd a1dc 393d
00000110: 0224 f6bd 0807 9bbd 3b7f 2e3d ec4f ba3d
00000120: fa8f 683d 8116 adbd 5291 af3d d8e4 cdbd
00000130: ae1b 323d b43f 6bb8 84bb 30bc b1dd c03d
00000140: 9bda 36bd ce68 b03d 070c 1cbb 6c5d ee3c
00000150: 780b b3bd a181 623d 22fd 493d 2da5 babd
00000160: eb3e 47bd d846 db3c e70d e63d 482e 9bbd
00000170: 6ee4 1e3d f7db 623d c29c 11bd 7241 1dbc
00000180: f1c2 1bbd 1e2c ad3d ba22 b93d 7112 10bd

linear4.weight f4 [100, 100]
-0.1677734 -0.15307592 -0.07979842 -0.014706041 -0.13788524 -0.082500525 -0.20380154 -0.16767628
0.11444797 -0.3225014 -0.040769506 0.1264018 0.0297101 0.14269505 0.08167639 0.21205696
0.16119169 -0.2070561 0.16842185 -0.17153 0.091826625 -0.16477397 0.13758722 -0.05568097
-0.1953932 0.19432233 0.19503932 -0.07706394 -0.14047639 0.069720685 -0.1468536 0.16101007
-0.23346883 -0.18175983 0.1761636 0.20105818 0.08403194 -0.024230117 -0.2248022 0.22332108
0.017175736 0.0037902049 -0.09352733 -0.111324884 0.23782592 0.19859372 -0.103736 -0.080408715
-0.11091826 0.07671709 0.0012742426 0.084023595 0.11864227 -0.18684402 0.07922691 -0.0982744
0.07727517 -0.054195706 0.2017104 -0.22392358 -0.18682556 -0.04002944 -0.12994689 0.1179046
-0.09954165 0.058754455 -0.08356284 -0.28910667 -0.19132982 -0.0074144797 -0.2782927 -0.083639346
-0.121370815 -0.05396772 0.16453297 0.09972512 0.104641736 0.15874656 0.07286292 -0.08796012
0.076462045 -0.056813195 -0.088326655 -0.19423543 0.22508396 0.10540206 -0.05177492 -0.20857666
0.006287863 -0.0042976304 0.20816326 -0.12572475 -0.03532558 -0.17809397 -0.03999318 0.13731435
-0.12950194 0.0354245 -0.15825792 -0.21529898 0.10009698 0.1910524 -0.02053892 -0.199305
-0.07163516 0.052855268 -0.19938675 0.052606635 -0.1481873 -0.12489966 0.07512772 0.06264038
0.072495826 0.1902757 0.09038941 -0.14204219 0.1457701 0.081214815 -0.13224348 -0.02682135
-0.20133172 0.16644022 0.049130026 -0.29528302 0.1006324 -0.02865832 -0.2118657 0.13761173
-0.21759889 -0.19094193 -0.0035142766 -0.11956979 0.014591659 -0.013545519 -0.2289031 -0.29230654
-0.0766827 0.088877715 0.15472631 0.017539585 0.06384256 -0.042702816 -0.06596665 0.070543095
-0.064910635 -0.03560804 0.16349344 -0.06594172 -0.13579172 -0.17208591 -0.025203303 -0.06874978
0.027749207 -0.21454713 0.22007492 -0.248416 0.22960307 -0.16160999 0.21406773 0.08770933
0.017224 -0.10449367 0.11030251 0.2021417 -0.029817214 0.060795635 0.23353453 -0.13443218
0.18048574 0.13733405 0.032548834 0.131919 0.005482243 -0.28433084 -0.11408069 -0.17573704
0.097361445 0.13860206 0.19667439 -0.14738709 -0.26576713 0.37631395 -0.13262415 0.19963637
-0.030323613 -0.176545 0.013391501 0.23842783 0.24736896 0.19338615 -0.1830149 -0.15722945
-0.119569585 -0.043764964 -0.18592626 0.2396983 -0.09612697 -0.048343148 -0.1163633 0.16425538
0.2334354 -0.13500006 -0.055697452 0.14487723 0.066495314 0.059313014 -0.16012092 0.0656477
0.11287318 0.10414623 -0.19875926 0.005658866 -0.080720335 0.09352686 0.23327747 -0.088389866
-0.18935844 0.07010813 -0.2775615 0.15096535 -0.075697124 0.025007615 -0.21670386 -0.26245546
0.20704326 -0.010237963 -0.106002495 -0.20803441 0.08946273 -0.10909852 -0.19794522 0.20401023
-0.12732771 -0.04247277 0.09195553 -0.41809225 0.08311555 0.04201708 -0.13704953 -0.17037812
-0.0074164458 0.16984738 0.22372468 -0.045265127 0.09528818 0.011651242 -0.16422902 -0.16597731
-0.13500495 -0.22604062 -0.041206237 0.008084359 -0.14000578 -0.18859877 -0.009915739 0.077054895
00000000: cacc 2bbe efbf 1cbe 5b6d a3bd 9bf1 70bc
00000010: ca31 0dbe 09f6 a8bd 5ab1 50be 55b3 2bbe
00000020: b363 ea3d e71e a5be edfd 26bd 796f 013e
00000030: 9862 f33c a71e 123e f345 a73d 7625 593e
00000040: 6f0f 253e 8406 54be c776 2c3e 8fa5 2fbe
00000050: 990f bc3d 82ba 28be aae3 0c3e bb11 64bd
00000060: 2815 48be 6ffc 463e 63b8 473e b3d3 9dbd
00000070: 0bd9 0fbe b8c9 8e3d ca60 16be d3df 243e
00000080: 7412 6fbe 401f 3abe 3b64 343e 32e2 4d3e
00000090: f018 ac3d 3d7e c6bc 8c32 66be 48ae 643e
000000a0: 21b4 8c3c 1665 783b 428b bfbd 4dfe e3bd
000000b0: a388 733e 275c 4b3e 8a73 d4bd 53ad a4bd
000000c0: 1d29 e3bd da1d 9d3d 7d04 a73a 9014 ac3d
000000d0: b8fa f23d 0a54 3fbe b841 a23d 1744 c9bd
000000e0: 7242 9e3d 51fc 5dbd 2c8d 4e3e 394c 65be
000000f0: 334f 3fbe e9f5 23bd cc10 05be f877 f13d
00000100: 7edc cbbd 83a8 703d ff22 abbd ca05 94be
00000110: f7eb 43be 2af5 f2bb 617c 8ebe 1b4b abbd
00000120: 4391 f8bd 420d 5dbd 557b 283e af3c cc3d
00000130: 684e d63d 758e 223e 2839 953d 6f24 b4bd
00000140: 2298 9c3d f4b4 68bd 9be4 b4bd a7e5 46be
00000150: 697c 663e 09dd d73d f011 54bd 1f95 55be
00000160: 6b0a ce3b 23d3 8cbb c028 553e fdbd 00be
00000170: 8eb1 10bd 445e 36be e4cf 23bd 229c 0c3e
00000180: 289c 04be 4819 113d 5d0e 22be 5677 5cbe
00000190: a5ff cc3d 3ea3 433e 3d41 a8bc 9c16 4cbe
000001a0: 74b5 92bd c47e 583d 0a2c 4cbe 0e7a 573d
000001b0: 69be 17be 65cb ffbd 90dc 993d 9949 803d
000001c0: b178 943d a2d7 423e 151e b93d 8273 11be
000001d0: c244 153e f453 a63d d66a 07be 73b8 dbbc
000001e0: e729 4ebe 4e6f 2a3e 913c 493d 562f 97be
000001f0: 5c18 ce3d dac4 eabc 52f3 58be 17ea 0c3e
00000200: 3ed2 5ebe 4886 43be c74f 66bb 02e1 f4bd
00000210: db11 6f3c 06ee 5dbc 9365 6abe 34a9 95be
00000220: d20b 9dbd 8505 b63d 9370 1e3e 2daf 8f3c
00000230: e3bf 823d 26e9 2ebd 8619 87bd e678 903d
00000240: deef 84bd bcd9 11bd d36a 273e 740c 87bd
00000250: fc0c 0bbe 4a37 30be 2877 cebc afcc 8cbd
00000260: 4e52 e33c 3eb2 5bbe 525b 613e c460 7ebe
00000270: 111d 6b3e 177d 25be 9234 5b3e f3a0 b33d
00000280: 5919 8d3c c700 d6bd 48e6 e13d 3cfe 4e3e
00000290: 3b43 f4bc d804 793d ad23 6f3e 97a8 09be
000002a0: 41d1 383e 4ca1 0c3e ed51 053d c615 073e
000002b0: 63a4 b33b d093 91be 23a3 e9bd 69f4 33be
000002c0: 7065 c73d b3ed 0d3e 0365 493e a4ec 16be
000002d0: a112 88be 39ac c03e a0ce 07be 7a6d 4c3e
000002e0: 3a69 f8bc 36c8 34be 0768 5b3c 6d26 743e
000002f0: 4a4e 7d3e 0507 463e 4268 3bbe c200 21be
00000300: e6e0 f4bd e442 33bd 7463 3ebe 7973 753e
00000310: 38de c4bd 7703 46bd e24f eebd 9032 283e
00000320: b109 6f3e 753d 0abe 0323 64bd b25a 143e
00000330: b22e 883d 34f2 723d bdf6 23be 4d72 863d
00000340: 0e2a e73d 9e4a d53d 8c87 4bbe 026e b93b
00000350: b450 a5bd 038b bf3d 4ae0 6e3e bf05 b5bd
00000360: 2ee7 41be da94 8f3d 8a1c 8ebe a996 1a3e
00000370: 1807 9bbd c5dc cc3c 9ee7 5dbe 9060 86be
00000380: 2603 543e 21bd 27bc d617 d9bd f906 55be
00000390: 3c38 b73d 0b6f dfbd 27b2 4abe 0fe8 503e
000003a0: 3262 02be edf7 2dbd 2e53 bc3d 3010 d6be
000003b0: 7c38 aa3d 1a1a 2c3d b656 0cbe 9a77 2ebe
000003c0: a805 f3bb 79ec 2d3e 1518 653e ed67 39bd
000003d0: 7326 c33d dae4 3e3c a72b 28be f5f5 29be
000003e0: bd3e 0abe 3177 67be dfc7 28bd 4274 043c
000003f0: ad5d 0fbe 0920 41be a075 22bc f5ce 9d3d

linear4.bias f4 [100]
-0.023486838 0.07904435 0.061925925 0.004689377 0.014728218 -0.034708668 -0.088194504 0.03600777
-0.013448171 0.037913647 -0.14046867 -0.021105504 0.005824743 -0.046250753 -0.007600672 -0.08077756
0.047027808 -0.08591652 0.087774426 -0.017945103 -0.015804194 -0.022403328 0.0036354058 0.03677304
-0.040788952 0.016657317 0.036365528 -0.07014955 -0.09962978 0.050403997 0.009934382 -0.110040545
0.023046775 -0.064305685 0.061136473 -0.02806186 -0.00069514866 -0.15707068 0.04045982 -0.015992995
0.037075296 -0.0056999614 -0.05220854 -0.11071312 -0.13484195 -0.06436048 -0.014807951 -0.008787813
0.052246816 -0.031564564 -0.018971201 0.08660562 0.0023524258 -0.04850163 -0.069936514 -0.076704495
-0.032588042 0.07062336 -0.022358293 -0.12808685 -0.09272514 0.013230148 -0.061929308 0.06236422
-0.038182173 -0.0022302181 0.062066797 -0.042091258 -0.06533003 -0.01751228 -0.03787053 -0.0071950834
-0.09216775 -0.10485962 0.06563616 0.06784755 0.021864973 0.009951003 -0.08401651 -0.07824252
0.07756801 -0.093850434 0.050529595 0.059718993 -0.010492876 0.05015959 0.05008665 -0.024739435
0.052224692 -0.12305976 -0.0670525 0.048770618 -0.0140186725 -0.008951895 -0.022264766 -0.08512553
-0.0069174003 0.00019038163 0.018155599 0.04096018
00000000: 7867 c0bc 01e2 a13d 0aa6 7d3d 58a9 993b
00000010: a04e 713c ad2a 0ebd 529f b4bd e27c 133d
00000020: b855 5cbc 574b 1b3d 05d7 0fbe 73e5 acbc
00000030: 7cdd be3b 6e71 3dbd 0f0f f9bb b56e a5bd
00000040: 3ba0 403d 00f5 afbd 14c3 b33d 9c01 93bc
00000050: cc77 81bc 2f87 b7bc fd3f 6e3b 549f 163d
00000060: 5112 27bd ed74 883c 05f4 143d 91aa 8fbd
00000070: b30a ccbd 6c74 4e3d d1c3 223c f05c e1bd
00000080: 97cc bc3c b3b2 83bd 3d6a 7a3d fce1 e5bc
00000090: a33a 36ba 23d7 20be 32b9 253d be03 83bc
000000a0: 44dc 173d bec6 babb 9fd8 55bd 8fbd e2bd
000000b0: 0214 0abe 6dcf 83bd 0c9d 72bc c2fa 0fbc
000000c0: c200 563d d849 01bd 7e69 9bbc 4a5e b13d
000000d0: 282b 1a3b a5a9 46bd e03a 8fbd 3f17 9dbd
000000e0: 0a7b 05bd fba2 903d bd28 b7bc 3329 03be
000000f0: aee6 bdbd 43c3 583c 96a9 7dbd a071 7f3d
00000100: e964 1cbd da28 12bb c139 7e3d e267 2cbd
00000110: c0cb 85bd ea75 8fbc 211e 1bbd bcc4 ebbb
00000120: 72c2 bcbd a4c0 d6bd 406c 863d a8f3 8a3d
00000130: 2c1e b33c 8809 233c d910 acbd 9d3d a0bd
00000140: fadb 9e3d a834 c0bd 1ff8 4e3d e79b 743d
00000150: 50ea 2bbc 2474 4d3d a927 4d3d 5baa cabc
00000160: 8fe9 553d c106 fcbd d252 89bd b3c3 473d
00000170: 93ae 65bc f8aa 12bc 9964 b6bc 4b56 aebd
00000180: 5cab e2bb 2ea1 4739 0dbb 943c ddc5 273d

linear5.weight f4 [100, 100]
0.106342025 0.045888074 -0.031581435 0.17664638 -0.06900955 -0.22391376 -0.23843408 0.20798442
-0.20852035 0.10999364 -0.12605816 0.27753064 -0.008829769 -0.22451633 0.12553823 -0.06956322
0.08995744 0.16226351 -0.07319089 0.11353412 0.054048505 0.022164054 -0.12812017 -0.12988117
-0.1436091 0.05213239 -0.14685044 0.0055309865 0.06379533 0.11554869 -0.05047351 -0.2754933
0.09501739 -0.04573951 0.067437865 0.13266166 -0.051815543 0.09551746 -0.1599641 -0.13442439
0.12125942 0.04716127 -0.058700364 -0.15492503 0.14891809 0.21369202 -0.17224483 -0.1367152
0.078697294 -0.027425047 -0.17599021 -0.040096473 0.077847585 -0.097407416 -0.02120996 -0.24722588
0.14295213 0.30092955 -0.008121589 -0.22622398 -0.21627706 0.010155167 -0.06121836 -0.23864996
0.16365238 0.1021648 -0.06092621 0.09262769 0.01828909 0.18353917 -0.23032512 -0.1244239
-0.09104923 0.07572131 -0.24367128 -0.033422776 -0.13007313 -0.09823631 -0.16418274 0.048143014
-0.06550035 0.22279295 0.03708948 -0.21218772 0.047741737 0.1699754 -0.08527328 -0.17258267
0.13617548 0.17564769 0.01750889 -0.1438283 0.041272283 0.15608202 -0.050837643 -0.017516375
-0.21749051 -0.21857287 -0.19781975 0.20308006 0.043726556 -0.26845962 -0.35631397 0.14323276
-0.22180311 -0.010620724 0.18133762 0.08677531 0.12229379 -0.22608705 -0.0036748096 0.050975975
0.021208154 0.18572664 0.12898843 0.00819419 0.23035873 -0.02789019 -0.18783616 -0.15080903
-0.2199736 0.14868712 0.11846694 -0.086096875 0.039639045 0.14101616 0.0381047 -0.15034151
0.08689701 -0.09595932 0.09184445 -0.02838816 -0.108435474 -0.24045645 -0.12567082 -0.23501976
0.08076535 -0.117609724 0.14613214 -0.03813344 -0.010428187 0.053701863 -0.099489845 0.02332086
-0.0014155708 0.0038984457 -0.22751835 0.12848468 -0.20007138 -0.11639162 0.103846185 0.03728237
-0.14844503 -0.08877485 0.034982607 0.044541985 -0.10129004 0.108580366 0.22118653 0.27537355
0.16706806 -0.29067445 0.030554108 0.07371133 0.04884124 0.073328406 -0.22213665 0.12819867
-0.005560067 0.18502823 -0.23439263 -0.10359581 -0.026433947 -0.12703696 0.07524835 0.088724256
0.0014078268 0.20201714 0.18738885 0.08459878 -0.022737106 -0.28716287 0.15195209 -0.2533486
-0.034417152 -0.001359537 0.10267178 0.03935438 -0.14792782 -0.093672566 0.2748399 -0.17681888
-0.1259906 -0.0064656925 -0.24784857 -0.1646598 -0.18996994 -0.06137592 0.15759268 0.100947864
0.15850095 -0.091161355 -0.25356773 0.19933306 0.12728181 -0.15731296 0.012445275 -0.07488412
0.17815384 -0.13397758 0.14047182 -0.19933699 0.067466855 0.12205543 0.007645043 0.10100238
0.05709205 0.043529667 -0.074539036 -0.07377237 0.1915018 0.23526223 -0.034702122 0.18251358
-0.029574525 -0.09681768 0.0777911 -0.15565054 0.18069355 -0.14510672 0.19701788 -0.13684188
0.0607147 -0.20989536 -0.10917425 -0.25437817 0.21529539 0.113347284 -0.13683704 -0.085046045
-0.11967971 0.21876214 0.110996015 0.069869265 0.23422667 0.17873327 -0.19822259 -0.024995906
-0.24665494 -0.15806217 0.16546386 -0.061130866 -0.23205538 -0.008098519 -0.033879694 -0.111624405
00000000: d9c9 d93d 22f5 3b3d 895b 01bd cae2 343e
00000010: e154 8dbd a649 65be 1028 74be def9 543e
00000020: 5c86 55be 5844 e13d 6415 01be 7f18 8e3e
00000030: bcaa 10bc 9ce7 65be 188d 003e 2977 8ebd
00000040: 9b3b b83d 6828 263e 1be5 95bd 9484 e83d
00000050: f761 5d3d 6491 b53c ef31 03be 92ff 04be
00000060: 440e 13be c688 553d f65f 16be 473d b53b
00000070: 20a7 823d cba4 ec3d 50bd 4ebd 750d 8dbe
00000080: 7a98 c23d 5a59 3bbd dd1c 8a3d 75d8 073e
00000090: 893c 54bd a89e c33d a1cd 23be 8ca6 09be
000000a0: dc56 f83d 2d2c 413d cb6f 70bd aba4 1ebe
000000b0: fc7d 183e 15d2 5a3e f360 30be 12ff 0bbe
000000c0: 0c2c a13d 7eaa e0bc c736 34be 333c 24bd
000000d0: 8e6e 9f3d 8a7d c7bd 83c0 adbc c828 7dbe
000000e0: 0b62 123e 7013 9a3e 6a10 05bc 42a7 67be
000000f0: bc77 5dbe dc61 263c 1ac0 7abd a860 74be
00000100: 7d94 273e c73b d13d c38d 79bd 96b3 bd3d
00000110: 00d3 953c b1f1 3b3e 59da 6bbe f5d1 febd
00000120: 0578 babd c613 9b3d f784 79be 52e6 08bd
00000130: e431 05be 1e30 c9bd 851f 28be 9c31 453d
00000140: 0c25 86bd d623 643e 23eb 173d bd47 59be
00000150: d78c 433d 080e 2e3e c2a3 aebd 83b9 30be
00000160: 9671 0b3e fddc 333e ce6e 8f3c ba47 13be
00000170: 200d 293d f7d3 1f3e 223b 50bd 807e 8fbc
00000180: d5b5 5ebe 91d1 5fbe 4391 4abe 38f4 4f3e
00000190: 9e1a 333d 8a73 89be c96e b6be 9cab 123e
000001a0: 5b20 63be 8c02 2ebc 92b0 393e 41b7 b13d
000001b0: 2b75 fa3d 5d83 67be 13d5 70bb 2fcc 503d
000001c0: b9bc ad3c 202f 3e3e 8b15 043e ed40 063c
000001d0: 29e3 6b3e f879 e4bc 1f58 40be af6d 1abe
000001e0: c240 61be 7041 183e cc9e f23d 8f53 b0bd
000001f0: 8d5c 223d 8a66 103e ad13 1c3d 20f3 19be
00000200: 0ff7 b13d 5286 c4bd f118 bc3d 498e e8bc
00000210: 6b13 debd 373a 76be daaf 00be 05a9 70be
00000220: 4e68 a53d 5edd f0bd aaa3 153e cf31 1cbd
00000230: fdda 2abc 7cf6 5b3d 55c1 cbbd 630b bf3c
00000240: ad8a b9ba 117d 7f3b 92fa 68be 7d91 033e
00000250: 83df 4cbe bb5e eebd 4fad d43d 66b5 183d
00000260: f901 18be 97cf b5bd ec49 0f3d a871 363d
00000270: 2771 cfbd 625f de3d b97e 623e c3fd 8c3e
00000280: e413 2b3e 48d3 94be 9c4c fa3c f7f5 963d
00000290: c10d 483d 342d 963d ca77 63be 8346 033e
000002a0: 3931 b6bb 0a78 3d3e 9f04 70be 0a2a d4bd
000002b0: 018c d8bc fa15 02be cf1b 9a3d 10b5 b53d
000002c0: d486 b83a 95dd 4e3e dde2 3f3e 2042 ad3d
000002d0: 2b43 babc 0307 93be 5499 1b3e e8b6 81be
000002e0: 00f9 0cbd 7e32 b2ba 9545 d23d 0f32 213d
000002f0: 647a 17be 67d7 bfbd d1b7 8c3e 0210 35be
00000300: ae03 01be 29de d3bb 04cc 7dbe 949c 28be
00000310: 7b87 42be 5165 7bbd fa5f 213e c1bd ce3d
00000320: 134e 223e ceb2 babd a1d3 81be f71d 4c3e
00000330: 2a56 023e a616 21be 44e7 4b3c d85c 99bd
00000340: f66d 363e 6b31 09be d8d7 0f3e ff1e 4cbe
00000350: 102c 8a3d 33f8 f93d 4583 fa3b 56da ce3d
00000360: 5ad9 693d 2a4c 323d eca7 98bd f815 97bd
00000370: 0c19 443e 95e8 703e d023 0ebd d7e4 3a3e
00000380: 4646 f2bc 5948 c6bd f150 9f3d db62 1fbe
00000390: bb07 393e db96 14be 0ebf 493e 4720 0cbe
000003a0: faaf 783d cfee 56be c096 dfbd db3d 82be
000003b0: 6576 5c3e 9f22 e83d 021f 0cbe 9f2c aebd
000003c0: a31a f5bd 2f03 603e e151 e33d 9e17 8f3d
000003d0: 1ed9 6f3e db05 373e ddfa 4abe 37c4 ccbc
000003e0: 1d93 7cbe 0ddb 21be 5c6f 293e 5c64 7abd
000003f0: ed9f 6dbe a7af 04bc 6fc5 0abd 569b e4bd

linear5.bias f4 [100]
-0.0845295 0.028593054 -0.08080996 -0.021505805 -0.03216855 0.02900855 -0.025174038 -0.0744347
0.01701103 -0.01706819 -0.05532632 -0.08990879 -0.09997914 0.058934342 0.023446774 0.02245942
-0.070273116 0.026882906 -0.10973615 -0.057422936 -0.060007285 0.049067274 0.016211344 0.02555456
-0.09747252 0.07431356 -0.09098965 0.030409494 0.038489666 -0.08868237 -0.06840841 -0.07669296
-0.13433796 -0.13416539 0.065591015 -0.062441908 0.03899266 -0.017353905 -0.074726894 -0.030306814
0.041637797 0.009381389 -0.13581851 -0.07201247 -0.07329372 0.0023607246 -0.07111238 -0.046654608
0.06542314 -0.023764512 0.043575305 -0.04381803 -0.0076155476 0.00029528266 0.01264123 -0.044127308
-0.057581756 0.0062888023 -0.0003026362 0.07308032 -0.09983657 0.051180054 -0.07637522 -0.026036443
-0.021392148 -0.04024746 -0.10563556 -0.022326032 0.027682904 0.023714086 -0.117617585 -0.042905726
0.0680135 -0.019168517 0.008166434 0.02875953 -0.1394936 -0.052665167 -0.08291794 -0.0760109
0.009685051 -0.064397976 0.057846967 -0.031932537 0.013716463 0.07584815 0.031336516 0.029175583
-0.07448019 0.05295945 -0.09312117 0.09885308 -0.064505465 -0.053260148 -0.070223585 -0.028471349
0.07598956 0.043836337 -0.087878786 0.023926063
00000000: cd1d adbd fb3b ea3c b17f a5bd f12c b0bc
00000010: 2bc3 03bd 57a3 ed3c c939 cebc 3871 98bd
00000020: b75a 8b3c 97d2 8bbc da9d 62bd 1a22 b8bd
00000030: ddc1 ccbd 2365 713d 7313 c03c d1fc b73c
00000040: 5aeb 8fbd 8a39 dc3c 59bd e0bd 5034 6bbd
00000050: 33ca 75bd c4fa 483d a7cd 843c cc57 d13c
00000060: ac9f c7bd b531 983d c858 babd 551d f93c
00000070: 57a7 1d3d 1a9f b5bd b519 8cbd 3311 9dbd
00000080: e48f 09be a762 09be 9554 863d 16c3 7fbd
00000090: c4b6 1f3d c729 8ebc 6a0a 99bd ff45 f8bc
000000a0: 658c 2a3d 66b4 193c 0214 0bbe 467b 93bd
000000b0: 051b 96bd 63b6 1a3b 5ea3 91bd e718 3fbd
000000c0: 91fc 853d cbad c2bc 057c 323d 897a 33bd
000000d0: d88b f9bb 2bd0 9a39 291d 4f3c d6be 34bd
000000e0: d9da 6bbd 4c12 ce3b 25ab 9eb9 23ab 953d
000000f0: 1e77 ccbd 2da2 513d 9d6a 9cbd 614a d5bc
00000100: 963e afbc 85da 24bd 7557 d8bd 15e5 b6bc
00000110: 42c7 e23c 0b44 c23c 7de1 f0bd eabd 2fbd
00000120: a94a 8b3d 4b07 9dbc 82cc 053c 1b99 eb3c
00000130: 69d7 0ebe 6eb7 57bd e2d0 a9bd 9aab 9bbd
00000140: 0cae 1e3c 16e3 83bd f1f0 6c3d b1cb 02bd
00000150: 04bb 603c 4656 9b3d b85a 003d a201 ef3c
00000160: 1289 98bd 02ec 583d 50b6 bebd 7c73 ca3d
00000170: 711b 84bd 5027 5abd 62d1 8fbd bf3c e9bc
00000180: 6aa0 9b3d bb8d 333d cbf9 b3bd 9700 c43c

linear6.weight f4 [100, 100]
-0.22942534 -0.18077002 -0.046905186 -0.17738084 -0.12576787 0.27165934 0.07713786 -0.10327096
-0.16736513 0.06835454 -0.11591992 -0.0070090545 0.18145344 0.06736374 -0.15744834 0.17571408
-0.037491284 0.062232334 -0.00977269 -0.19224794 0.016703006 0.1465106 0.095833935 -0.33198828
0.108619995 0.029903002 -0.03465944 0.024422834 -0.14410323 0.12115999 -0.16713423 0.016898325
-0.10181218 0.122246355 -0.24509314 -0.21867551 -0.09608602 -0.0235998 0.029777743 0.18614917
0.11481094 -0.019355204 -0.15147804 0.025287012 -0.15759738 -0.17232083 0.20095809 0.1671757
0.035245165 -0.17107639 0.19396238 0.21376498 -0.10414322 0.04018266 -0.024041826 0.06530561
-0.007198979 -0.18056332 0.0867249 0.22832516 0.15113302 0.024706453 0.11964471 0.018572634
0.03697129 -0.1902843 -0.19119152 -0.14754052 0.1836793 -0.29487324 -0.15637568 0.017971853
-0.19613147 0.21442984 -0.23621914 0.112771586 0.17946167 0.02026821 0.16205987 -0.14338107
0.17498556 -0.20602866 -6.4284206e-05 -0.110125385 -0.22291234 -0.26102382 -0.21853545 -0.08849054
-0.2221298 -0.2351988 -0.16658673 0.15061854 0.1664394 -0.25063616 -0.21652426 0.21939933
0.0064346353 -0.15800959 -0.18512847 -0.20886908 0.11545922 -0.13058059 -0.17148599 -0.21935116
-0.21212758 -0.21372382 0.04046553 -0.12433587 0.067362815 0.017526591 -0.22178222 0.004187553
-0.14206827 0.13051927 0.17893441 0.17162478 0.23937552 0.10216736 0.058096908 0.11924567
0.12367527 -0.0057358784 -0.030582357 0.15719068 0.17598417 -0.02552041 -0.10834482 -0.15698591
0.0035221302 0.09350529 -0.2041704 0.0033789133 0.06186847 -0.14385085 0.21217573 0.17419977
-0.052767623 0.16739327 -0.14921433 0.14061019 0.06112143 -0.21088785 0.1872345 -0.034757428
0.10658295 0.0628484 -0.2003343 -0.13473353 -0.0028947871 0.043047667 -0.058780957 -0.15854181
0.05501609 -0.19579154 -0.15312323 -0.2413416 -0.20428956 -0.082506955 -0.020519238 -0.07419524
0.25587898 0.19046271 -0.0805019 0.13109915 -0.2624941 0.012890106 0.10753147 -0.007360563
0.16743493 0.2130349 -0.13839121 0.18601248 0.033472538 0.1723328 -0.093757994 -0.12493101
-0.05005999 0.15006542 -0.06425456 0.08879978 0.054606512 -0.08785645 0.17976704 0.039379794
-0.20255718 -0.19567871 0.22425118 0.18924668 -0.1904094 -0.10534217 -0.03175625 0.10740051
0.073471986 0.10884066 0.15214078 0.23847024 0.01573367 0.08818724 -0.2077038 0.20163046
-0.2019735 0.049147353 -0.20016104 0.038681448 0.019762732 0.12129606 -0.110240676 0.21110283
0.08885495 -0.24755158 0.006727217 -0.2079546 0.107839696 0.08172343 -0.03162688 0.16837007
-0.07997473 0.18684958 0.05978443 0.0020997496 -0.16190648 0.07385357 -0.18056795 0.20918272
0.07229006 -0.16209704 -0.18924592 -0.006063482 0.20036194 -0.09247086 0.030033758 -0.14090368
0.06664481 0.032236047 -0.17469451 0.1846263 0.16457513 0.10595839 0.09517526 0.087754935
0.23572731 -0.037130494 -0.14552753 -0.06901305 0.11894126 0.13485785 0.07797295 -0.061916657
-0.093624756 -0.18933704 -0.13678366 0.032956645 0.14847843 0.10050004 -0.046228442 -0.29253066
00000000: 7aee 6abe c71b 39be a71f 40bd 53a3 35be
00000010: 4bc9 00be ef16 8b3e 74fa 9d3d ba7f d3bd
00000020: c461 2bbe 77fd 8b3d 6c67 edbd 36ac e5bb
00000030: eece 393e 00f6 893d 233a 21be 64ee 333e
00000040: 7690 19bd 55e7 7e3d a21d 20bc a5dc 44be
00000050: bed4 883c e006 163e 9544 c43d 5efa a9be
00000060: 2974 de3d 24f7 f43c 0ff7 0dbd 6512 c83c
00000070: cc8f 13be bb22 f83d 3c25 2bbe 5b6e 8a3c
00000080: e782 d0bd 4c5c fa3d b2f9 7abe 79ec 5fbe
00000090: bfc8 c4bd 5e54 c1bc 74f0 f33c e39d 3e3e
000000a0: 0022 eb3d ce8e 9ebc 0f1d 1bbe b526 cf3c
000000b0: 3561 21be df74 30be f5c7 4d3e 1b30 2b3e
000000c0: 3c5d 103d a62e 2fbe 139e 463e 35e5 5a3e
000000d0: 0a49 d5bd 9396 243d 5df3 c4bc f3be 853d
000000e0: 6ae5 ebbb 97e5 38be d39c b13d 12ce 693e
000000f0: 9dc2 1a3e 3065 ca3c 4908 f53d a325 983c
00000100: 356f 173d e3d9 42be b6c7 43be dd14 17be
00000110: 6d16 3c3e a0f9 96be f220 20be b539 933c
00000120: b0d6 48be 7f93 5b3e 6ee3 71be caf4 e63d
00000130: cdc4 373e 8409 a63c 06f3 253e 7dd2 12be
00000140: 6a2f 333e 2df9 52be 52d0 86b8 6b89 e1bd
00000150: 2243 64be eaa4 85be c2c7 5fbe 873a b5bd
00000160: ff75 63be f4d7 70be b695 2abe bf3b 1a3e
00000170: 176f 2a3e 6253 80be 89b8 5dbe 38aa 603e
00000180: a2d9 d23b 44cd 21be 5192 3dbe c7e1 55be
00000190: e275 ec3d ebb6 05be 069a 2fbe 979d 60be
000001a0: f937 59be 6bda 5abe 2fbf 253d cea3 febd
000001b0: 84f5 893d ed93 8f3c e11a 63be be37 893b
000001c0: 587a 11be d8a6 053e 953a 373e 68be 2f3e
000001d0: db1e 753e 1f3d d13d 06f7 6d3d 1337 f43d
000001e0: 7649 fd3d 09f4 bbbb da87 fabc 98f6 203e
000001f0: 3235 343e 2e10 d1bc e4e3 ddbd eac0 20be
00000200: 8ad3 663b b47f bf3d 0c12 51be c270 5d3b
00000210: cb69 7d3d a34d 13be 9844 593e 6d61 323e
00000220: dd22 58bd 2469 2b3e a4cb 18be 1efc 0f3e
00000230: 775a 7a3d fcf2 57be 67ba 3f3e ce5d 0ebd
00000240: 2948 da3d a9b6 803d 6f24 4dbe 96f7 09be
00000250: 78b6 3dbb c052 303d 4dc4 70bd c958 22be
00000260: 8d58 613d 947d 48be 56cc 1cbe 4122 77be
00000270: 4831 51be 68f9 a8bd f617 a8bc adf3 97bd
00000280: 9202 833e a808 433e 2ede a4bd db3e 063e
00000290: a065 86be 0631 533c 7639 dc3d e130 f1bb
000002a0: 1074 2b3e d225 5a3e 6db6 0dbe 0e7a 3e3e
000002b0: 801a 093d 0278 303e 3104 c0bd d4db ffbd
000002c0: b40b 4dbd c0aa 193e e597 83bd a9dc b53d
000002d0: 14ab 5f3d 15ee b3bd da14 383e b54c 213d
000002e0: 266b 4fbe 0060 48be 1aa2 653e e2c9 413e
000002f0: affa 42be a3bd d7bd d712 02bd ccf4 db3d
00000300: 7b78 963d dae7 de3d cbca 1b3e 8b31 743e
00000310: e6e3 803c 839b b43d 4eb0 54be 3778 4e3e
00000320: 24d2 4ebe bc4e 493d 04f7 4cbe 7070 1e3d
00000330: 74e5 a13c 126a f83d ddc5 e1bd 572b 583e
00000340: 96f9 b53d 297e 7dbe fd6f dc3b 0df2 54be
00000350: 0fdb dc3d 9d5e a73d 308b 01bd 3469 2c3e
00000360: cbc9 a3bd 7f55 3f3e 85e0 743d f49b 093b
00000370: d0ca 25be 8a40 973d cee6 38be ff33 563e
00000380: d00c 943d c4fc 25be afc9 41be 2cb0 c6bb
00000390: ae2b 4d3e 5d61 bdbd 5b09 f63c 0e49 10be
000003a0: 137d 883d f209 043d 1ee3 32be ad0e 3d3e
000003b0: 6286 283e b600 d93d 3feb c23d dcb8 b33d
000003c0: 8062 713e 2516 18bd 2b05 15be b756 8dbd
000003d0: 7a97 f33d 2d18 0a3e 48b0 9f3d 529c 7dbd
000003e0: 56be bfbd 92e1 41be 0411 0cbe 8cfd 063d
000003f0: bb0a 183e f7d2 cd3d 095a 3dbd 94c6 95be
